data.pth (torch, 5279 bytes, 6 tensors)

l1.weight f4 [8, 54]
00000000: b413 4cbe eadd 97be 813d 3f3e f6e0 e83e
00000010: d204 063f 497d d9be 48b0 e53e 9a6d 2d3e
00000020: 5409 b33e a663 7e3e 7eef c33e a0fc 28be
00000030: cfa1 933e 9931 fabd 45b2 39be 682c 4ebe
00000040: 3ccc 123f 6b2c dfbe 5183 f33e b9ed 2d3f
00000050: b993 1abe 8f98 193f 2b9f 043f 764b 793d
00000060: db5c 3abd a912 023f 06c8 f23e 3a62 4fbe
00000070: f052 03be dab9 70be 6850 9abd e2c1 28be
00000080: 58cf 77bc d953 963e f818 9abd 1896 7bbd
00000090: 8b26 28be c627 c63e 34b8 d63e f57d 263f
000000a0: 6f77 89be 81c7 db3e 55f6 28be 8d1f d1bc
000000b0: fffe 5bbd 5e1b 29be c13d e4be 8ef4 c5bd
000000c0: 77dd 9d3e fd8b 0a3f 0ee1 85be 8979 e53e
000000d0: 5a8b e83e bc08 373a 88a2 5bbe afc1 07be
000000e0: 1793 a2be 8905 de3d 1fd2 e83e fbf2 08bf
000000f0: ad8a 21be d51b f0bd 5042 10bf f107 b1be
00000100: 4532 c73e 3609 0f3f d627 4abc d14c ce3e
00000110: 183e 26be c7e9 f53e 6f7e fd3e 34f0 08bf
00000120: 020e 2e3e cdee 2e3f 164e 0ebe 4f7a 083f
00000130: db92 083f e91b 0e3f 71e6 5d3e dc65 753e
00000140: 8bb3 f4bc c6dd 5bbe ae07 0cbe 51b5 33be
00000150: 3a9a adbe 11bb b63e a23f babd 1a26 52be
00000160: 6782 b9bd fc74 ec3e 7fff febd f93e dabe
00000170: 31db c3bd 9c35 89be 7362 29be d241 963e
00000180: 0f9f db3e 9620 01be 3d70 bd3c d5c4 1fbe
00000190: ddfa 08bf b2df 39be db45 433d e11b 4a3e
000001a0: dc0f a23e ffc9 b83e 6215 6cbe ad0c 3f38
000001b0: b05e 8abe 2ef6 ab3e 91cf ef3e 17af 09be
000001c0: f3b7 49bd bfdc 1a3f d6bd b33e 4e52 6a3e
000001d0: 8486 b63e db9d e33e 7717 c63d 772d 9abd
000001e0: acc0 a53e 8b30 bc3d bd33 fd3e 26b0 21be
000001f0: bea7 903d 70c3 1a3f a3c7 b1be 56bb 7abd
00000200: c5ef 55be a4b9 09be eac7 18be d211 aebe
00000210: 4649 b93e 9a3d fcbd 9c14 c6bd ed97 c53e
00000220: 21dc 3a3e c2c0 bc3e 8a5e 073f ae8c 733d
00000230: cfe9 86bd 0dc5 ea3e d4a0 e63e c39f 813d
00000240: fcc2 5f3e 11dd b93e 2452 b53e c52a 073f
00000250: 031b 173f 1880 eabe aebf b2bd f92e 113f
00000260: 0e10 7e3e c4a8 0d3f 1e98 33bf 8037 3cbe
00000270: 24f8 95bd ef44 dcbe 5ae2 73bd eb5c a9be
00000280: b955 083f ff23 833e a957 97be c0a3 253f
00000290: ced3 783e f5f7 94bd 5e72 383e cbd9 343f
000002a0: ede8 ea3e 3c54 433e afc1 b93e 66f1 9e3e
000002b0: d5da 3ebe 7916 63be 6cd7 433d 74dd 2cbe
000002c0: fe8d 0c3f 6911 05bd d1db cfbd 11da 3a3f
000002d0: 66ef 51be 9b48 8ebe 9b73 0dbe d9c9 b7be
000002e0: c807 a9be cb6e abbd 9de2 16be fa98 81bd
000002f0: e8a2 6cbe 27f0 3c3f 9594 fcbd dad2 103f
00000300: 4371 f73e 3fe4 7dbe 0be8 4abe 820c 253e
00000310: a1a5 293f 2c20 35bd 6aaf 8cbd 27ca fa3e
00000320: bb91 913e da8f 683e ae8c 1a3f a901 dabe
00000330: d723 a7bd 2b38 b93e aaac ec3d 4661 0f3f
00000340: 312a 19bf 0637 1abd 6147 3bbe 2071 8ebe
00000350: b4be 8cbd bb31 89be 70dc a73e 2114 443e
00000360: f200 ffbd 5466 193f 6d3d e13e 90ca 273d
00000370: eaa7 423e aed5 5abe bad3 c43e 34da 903e
00000380: 8ac3 333f 667b b03e 1fa4 57be 19da 87be
00000390: 7c47 0c3f f987 f8bd 5114 e03e ebbb 0ebe
000003a0: 23bb 383d 4ddd 5abe 43eb e2bd 929f 45be
000003b0: 81df febc 8cec e5bd 319a 763c 5f1d 0bbe
000003c0: d834 fb3c 4650 06be 9643 11be e1b8 063f
000003d0: e088 023e 3c96 fe3e b464 debd f880 24be
000003e0: d875 68bd bf1a 103f fdc8 253f 50cf a1be
000003f0: 8726 1d3e e787 123f 1942 993e 2266 d93e
-0.19929391 -0.29661494 0.18675806 0.45484132 0.52351105 -0.42478397 0.44861054 0.16936341
0.34968054 0.248427 0.38268656 -0.16502619 0.28834388 -0.12216491 -0.1813441 -0.20134127
0.57342887 -0.43588576 0.47561124 0.6794086 -0.15095414 0.5999841 0.5180537 0.06086298
-0.04549871 0.50809723 0.4741823 -0.20252314 -0.12824607 -0.23508397 -0.075348675 -0.1648021
-0.015125118 0.29360846 -0.07524294 -0.061422437 -0.16420953 0.3870222 0.4193741 0.65035945
-0.26848933 0.42925647 -0.16500218 -0.02552774 -0.05370998 -0.16514346 -0.44578364 -0.09665786
0.30833027 0.54119855 -0.26148266 0.44819286 0.45418817 0.00069821975 -0.2144872 -0.13257478
-0.31752846 0.108408995 0.4547281 -0.5349576 -0.15775557 -0.117240585 -0.56351185 -0.3457637
0.3890554 0.5587343 -0.012338599 0.4029298 -0.16234624 0.4802992 0.49510524 -0.5349152
0.16997531 0.6833313 -0.13896975 0.5331163 0.53349084 0.5551134 0.21669938 0.23964638
-0.029870769 -0.21471319 -0.13674805 -0.17549635 -0.33906728 0.35689595 -0.09094168 -0.20522347
-0.090580754 0.46183002 -0.12451076 -0.4262617 -0.09563292 -0.26798713 -0.16541462 0.29347092
0.4289479 -0.12610087 0.023124808 -0.15602429 -0.53507787 -0.18151739 0.04767404 0.19737197
0.31652725 0.3609161 -0.23055032 4.5549754e-05 -0.27025366 0.33586258 0.46838048 -0.13445698
-0.049247693 0.6049308 0.3510577 0.22882959 0.35649502 0.44456372 0.09672444 -0.07528203
0.3237356 0.09188946 0.49453536 -0.15789852 0.07063244 0.60454464 -0.34722623 -0.061213814
-0.20892246 -0.13449723 -0.14920011 -0.3399797 0.36188716 -0.12316437 -0.096719 0.38592473
0.18248035 0.36865813 0.5287863 0.059460334 -0.06587564 0.45853463 0.45044577 0.063293
0.21851724 0.36301473 0.3541423 0.52799636 0.5902559 -0.45800853 -0.08727966 0.567123
0.24810812 0.5533564 -0.7015399 -0.18380547 -0.0732272 -0.43021342 -0.059542038 -0.33078703
0.532558 0.256134 -0.29559067 0.6470299 0.24299547 -0.072738566 0.18012378 0.70644826
0.45880833 0.19075102 0.3628058 0.31043547 -0.18638165 -0.22176541 0.047812864 -0.16881353
0.5490416 -0.032487307 -0.101493485 0.7298899 -0.2050148 -0.2778977 -0.13813631 -0.35896185
-0.3301375 -0.083707415 -0.14734884 -0.06328006 -0.23109019 0.73803943 -0.12333027 0.56571734
0.483286 -0.247941 -0.1981508 0.16118053 0.66268355 -0.044220135 -0.06869395 0.48982355
0.28431496 0.22711125 0.6037091 -0.42579392 -0.08161133 0.36175665 0.115563706 0.560078
-0.59830004 -0.03765013 -0.18288948 -0.27820683 -0.06872311 -0.26795754 0.32785368 0.19148304
-0.12451352 0.59921765 0.43992177 0.040964663 0.19009367 -0.21370575 0.38442785 0.28291476
0.70220244 0.34469146 -0.21058701 -0.26533583 0.54796576 -0.1213531 0.437655 -0.13938873
0.045100342 -0.21373482 -0.11080029 -0.19299152 -0.031112434 -0.11226758 0.0150514105 -0.13585423
0.030664846 -0.1311656 -0.14185938 0.5262585 0.12747526 0.49723995 -0.10859051 -0.16064823
-0.05675301 0.5629081 0.6475981 -0.3160348 0.15346728 0.5723862 0.2993324 0.42460734

l1.bias f4 [8]
00000000: 13b1 e33e c0f4 083f 5c03 343f 47e7 ed3e
00000010: 85dc 5a3e 60f7 e13e d6d8 413f befd 3c3f
0.44471034 0.5349846 0.70317626 0.46465513 0.21373184 0.44134045 0.7572149 0.7382468

l2.weight f4 [8, 8]
00000000: a34e a23f c0a9 a23f 5897 1e3e 0925 11bf
00000010: 7736 25bd f6b5 7e3f 6804 3bbe 9d13 7b3f
00000020: 36c9 39bf c429 febe 1460 0b3f d99f 473d
00000030: 63a2 78bf 0ad1 f8be 3301 923f 1ca7 213f
00000040: 81a2 e23d e6ef 36bf 355c d43e 9455 13bf
00000050: ac70 413e c8b0 8b3f 5cf2 953f 9183 6dbf
00000060: acc9 f6bd 3d6f 96bf 1eaa 993f e2e0 8a3f
00000070: db74 653f ac16 ab3d 246f 24be 4501 3a3f
00000080: b4f6 143e 94d4 5f3f c3aa 133f b363 e03d
00000090: e964 46bf a9cb 34bf 76b3 b03e f8b7 963f
000000a0: 698c 39bf 2528 553f 7f99 1c3e 2b8f 6ebf
000000b0: 2d61 3fbe f777 41bf 5d39 ba3e f8ec 083f
000000c0: be2f c7be 8b33 a33c 9dd8 1ebf 3c8d 58bf
000000d0: 0deb a6bb 1aca 633e 4947 a23f c7bb 85bd
000000e0: 62fd 0abf 0f32 24bf f9e3 dc3e 2c50 513e
000000f0: f2d4 71bf 9e6a bfbe 6e67 813f 2948 033f
1.2680248 1.2708054 0.1548742 -0.56697136 -0.040335145 0.994964 -0.182634 0.980768
-0.7257265 -0.4964124 0.5444348 0.048736427 -0.9712278 -0.48596984 1.1406616 0.63145614
0.110661514 -0.71459806 0.41476598 -0.57552457 0.18890637 1.0913324 1.1714587 -0.9277888
-0.120501846 -1.1752697 1.2005041 1.0849879 0.8963143 0.08353934 -0.16058022 0.7265819
0.14547235 0.87433743 0.57682437 0.10956516 -0.77497727 -0.7062326 0.34511918 1.1774893
-0.72479874 0.8326438 0.15292929 -0.93187207 -0.18689413 -0.75573677 0.3637189 0.53486586
-0.38903612 0.019922039 -0.62049276 -0.84590507 -0.005093938 0.22245064 1.2678005 -0.06529956
-0.5429288 -0.64138883 0.4314268 0.2044074 -0.94465554 -0.3738603 1.0109689 0.5128198

l2.bias f4 [8]
00000000: f33a 073f cb4e b73e a653 e93e c65c 873e
00000010: 0d92 e33e 90d4 99be 09e7 f13e c1fd ed3e
0.52824324 0.35802302 0.4557163 0.26437968 0.44447365 -0.30044985 0.47246578 0.4648266

l3.weight f4 [7, 8]
00000000: 74f9 d7bb 481b 9a3e fe68 84bf 8707 6dbf
00000010: e1e0 273e 895f 5e3f 6329 9e3e 45e1 2e3e
00000020: e56e 87bf 1989 72bf 5ae4 97bf e393 893f
00000030: a000 e0be ff07 a8be 35cd 46bd ac0e d1be
00000040: 67bd 00bf 259b 103f 1a6a 38bf ac19 ba3d
00000050: 2f50 d13e 2a41 82bf 643c 35bf fb84 453f
00000060: d4da 853f 0254 95bf c896 abbf 0e65 2dbf
00000070: 604b f23e 7084 62bf 3957 f7be 0bb7 22bf
00000080: f742 813e e2ce 78bf d01c 453f 6952 bbbf
00000090: 6779 8bbf 05ee 2cbf 1751 e83e cbc9 7abf
000000a0: 0296 373e 8dde 42bf 83c1 563e 5302 993e
000000b0: 4787 83bf 4012 6bbe 59d6 6abf dbe9 0cbf
000000c0: 2cb5 68bf 589a 0a3f da22 f83e dca4 93bf
000000d0: 25c6 92be 14d3 10bf 4bff 673f cd53 3f3f
-0.0065910164 0.3009894 -1.0344541 -0.9258961 0.16394378 0.86864525 0.3089095 0.17078121
-1.0580717 -0.94740444 -1.1866562 1.0748256 -0.43750477 -0.328186 -0.048535544 -0.40831506
-0.50289005 0.5648673 -0.720369 0.09086928 0.40881488 -1.0176136 -0.70795274 0.7715604
1.0457406 -1.1666262 -1.340539 -0.6773232 0.47323132 -0.88483334 -0.48308733 -0.6356055
0.25246403 -0.9719068 0.7699709 -1.4634525 -1.0896424 -0.6755069 0.45374367 -0.9796416
0.17928317 -0.76120836 0.20972256 0.29884586 -1.0275658 -0.2295618 -0.9173332 -0.55044335
-0.90901446 0.5414176 0.4846409 -1.1534686 -0.28666797 -0.5657208 0.9062392 0.74737245

l3.bias f4 [7]
00000000: e428 21bf 0336 ac3d 64ec 91be 8f87 143f
00000010: 5c46 bbbd 8e35 213e 535f 1dbe
-0.6295302 0.084087394 -0.28500664 0.58019346 -0.09144279 0.15743086 -0.15368395
